…
 outputs = [y]) 123model = CnnTransformerModel()model.compile(loss='mean_squared_error', optimizer='adam',metrics = ['mean_absolute_error'])model.summary() Model: &quot;model&quot; __________________________________________________________________________________________________ Layer (type) Output Shape Param # Connected to ================================================================================================== input_1 (InputLayer) [(None, 150000, 1)] 0 __________________________________________________________________________________________________ batch_normalization (BatchNorma (None, 150000, 1) 4 input_1[0][0] __________________________________________________________________________________________________ conv1d (Conv1D) (None, 15000, 8) 88 batch_normalization[0][0] __________________________________________________________________________________________________ batch_normalization_1 (BatchNor (None, 15000, 8) 32 conv1d[0][0] __________________________________________________________________________________________________ conv1d_1 (Conv1D) (None, 1500, 16) 1296 batch_normalization_1[0][0] __________________________________________________________________________________________________ batch_normalization_2 (BatchNor (None, 1500, 16) 64 conv1d_1[0][0] __________________________________________________________________________________________________ conv1d_2 (Conv1D) (None, 150, 32) 5152 batch_normalization_2[0][0] __________________________________________________________________________________________________ batch_normalization_3 (BatchNor (None, 150, 32) 128 conv1d_2[0][0] __________________________________________________________________________________________________ conv1d_3 (Conv1D) (None, 15, 64) 20544 batch_normalization_3[0][0] __________________________________________________________________________________________________ bidirectional (Bidirectional) (None, 15, 256) 197632 conv1d_3[0][0] __________________________________________________________________________________________________ bidirectional_1 (Bidirectional) (None, 15, 128) 164352 bidirectional[0][0] __________________________________________________________________________________________________ dense (Dense) (None, 15, 320) 40960 bidirectional_1[0][0] __________________________________________________________________________________________________ dense_1 (Dense) (None, 15, 320) 40960 bidirectional_1[0][0] __________________________________________________________________________________________________ lambda (Lambda) (None, None, 64) 0 dense[0][0] __________________________________________________________________________________________________ lambda_1 (Lambda) (None, None, 64) 0 dense_1[0][0] __________________________________________________________________________________________________ lambda_3 (Lambda) (None, None, None) 0 lambda[0][0] lambda_1[0][0] __________________________________________________________________________________________________ activation (Activation) (None, None, None) 0 lambda_3[0][0] __________________________________________________________________________________________________ dense_2 (Dense) (None, 15, 320) 40960 bidirectional_1[0][0] __________________________________________________________________________________________________ dropout (Dropout) (None, None, None) 0 activation[0][0] __________________________________________________________________________________________________ lambda_2 (Lambda) (None, None, 64) 0 dense_2[0][0] ________________________________________________________________________
…
