…
/span><br></pre></td></tr></table></figure><pre><code>Model: &quot;model&quot;__________________________________________________________________________________________________Layer (type)                    Output Shape         Param #     Connected to                     ==================================================================================================input_1 (InputLayer)            [(None, 150000, 1)]  0                                            __________________________________________________________________________________________________batch_normalization (BatchNorma (None, 150000, 1)    4           input_1[0][0]                    __________________________________________________________________________________________________conv1d (Conv1D)                 (None, 15000, 8)     88          batch_normalization[0][0]        __________________________________________________________________________________________________batch_normalization_1 (BatchNor (None, 15000, 8)     32          conv1d[0][0]                     __________________________________________________________________________________________________conv1d_1 (Conv1D)               (None, 1500, 16)     1296        batch_normalization_1[0][0]      __________________________________________________________________________________________________batch_normalization_2 (BatchNor (None, 1500, 16)     64          conv1d_1[0][0]                   __________________________________________________________________________________________________conv1d_2 (Conv1D)               (None, 150, 32)      5152        batch_normalization_2[0][0]      __________________________________________________________________________________________________batch_normalization_3 (BatchNor (None, 150, 32)      128         conv1d_2[0][0]                   __________________________________________________________________________________________________conv1d_3 (Conv1D)               (None, 15, 64)       20544       batch_normalization_3[0][0]      __________________________________________________________________________________________________bidirectional (Bidirectional)   (None, 15, 256)      197632      conv1d_3[0][0]                   __________________________________________________________________________________________________bidirectional_1 (Bidirectional) (None, 15, 128)      164352      bidirectional[0][0]              __________________________________________________________________________________________________dense (Dense)                   (None, 15, 320)      40960       bidirectional_1[0][0]            __________________________________________________________________________________________________dense_1 (Dense)                 (None, 15, 320)      40960       bidirectional_1[0][0]            __________________________________________________________________________________________________lambda (Lambda)                 (None, None, 64)     0           dense[0][0]                      __________________________________________________________________________________________________lambda_1 (Lambda)               (None, None, 64)     0           d
…
